Современные методы обучения с подкреплением. Advantage actor critic, RLHF/Acrobo.pth (torch, 78772 bytes, 7 tensors)

weight f4 [256, 6]
00000000: cc9b 093f b98f 6c3e 0ce6 e73e 9309 03be
00000010: b6d1 c13d 8311 123e 55b1 acbd b71d d9bf
00000020: ca45 483e 415f 4dbe 4b8b 4e3f 88bc ad3d
00000030: eba8 a53e 94e5 7c3e a547 93be 491e 59be
00000040: 743c 0cbd fffb debc 74af 8a3d 5d84 563e
00000050: b145 2e3d dc8a e8be e315 da3c 1a50 e1bb
00000060: dfad 02bf 17b5 c33e b2c5 1c3e fa8d 9fbe
00000070: 7097 083e df2f 4a3d 8fb0 483e cd75 22be
00000080: 494a 263e a1f0 60be 37c7 0abe cef2 0bbe
00000090: fc02 79bf df27 1f3e 39c8 98bf dee2 a83d
000000a0: a006 05bf e3c4 153e b72b 88bf c809 503e
000000b0: 8c80 1cbe 0879 1dbf 1ef1 503e d9d1 9c3d
000000c0: 6815 ac3e 577a 35bf f182 e13e f9ab e13e
000000d0: 6553 a33e 018f 573e 078f 023d 72f9 01be
000000e0: 4f76 18be 6cf5 e9bd 243f f43d 3311 29bc
000000f0: 16e6 92be bef4 e1bd 316f 053f 6c24 2f3f
00000100: 7bba 2bbf c8cb 0bbe d389 92be 2825 f8be
00000110: f13d cb3e b1a0 113e ced1 793c 60cf 33bd
00000120: 63ba 74bf b5c2 55bf 9327 89bf d0bd a73e
00000130: 6108 a73e f206 49be e0f2 d63e 4d15 2c3e
00000140: 8baf e13c ea16 593e ef4e bfbd c68b 66bd
00000150: b968 2bbf 14bb dbbd bb07 763f 6dc0 853c
00000160: b501 01bf fce8 d0bd b6b5 b43e 08a6 423e
00000170: 44b1 c63e 47b3 b0be 830c 42be d96d 17be
00000180: 299a 1a3f 68d4 57be 617e a73e 795f 86bd
00000190: 9044 373e 482f 193e 198a ccbe 715d 7cbe
000001a0: 550c 99bc a25b 3e3e 963f b93c c51f 883d
000001b0: 105b 36bf ac25 943e a60f 8bbf dda1 39bf
000001c0: a747 363e 5768 843e 8452 51bf 608a cabe
000001d0: dbdd cf3d 0195 0c3f 4d20 edbd d3d7 edbc
000001e0: 5c5f b33e 5b9a 24bf 64c1 af3d b077 fe3e
000001f0: 29b8 4f3e 0e38 5c3e ab1a 053e e3ed cfbe
00000200: 8f40 593e 2fb4 dd3e 37b5 4d3e 8671 123e
00000210: 05dc 8d3e 6df6 0c3f efdb 4a3e f228 bfbe
00000220: d0aa 253e cff4 0f3e 0ad7 e73e 9c1a abbe
00000230: 8b66 f53e 28c4 debe c6ce c73d b97e ea3d
00000240: b2ae 8fbe 6e87 c23f 067c 8a3e 6f26 583e
00000250: ef35 e53e 3139 2ebe 5074 ea3e 2f12 e13e
00000260: 28d2 f13e df9e d9be 8031 b2be f016 bcbd
00000270: 4ae3 8ebe 5368 3d3f 587d f3bd fd2b 583e
00000280: 7809 5abe 1e50 a53c 6773 0e3f c5a8 9b3d
00000290: c230 d53d a48a a53e c854 7fbe 0e94 26be
000002a0: f449 fc3e e57c 593e 1c23 fd3e b443 4cbe
000002b0: c01e cabe 115a b5bd 6793 17bb 1837 96bd
000002c0: b777 3a3f 81c9 8d3d 0c83 a13e 883e af3d
000002d0: 1b9a 8fbf 1a7b a53e 7eb4 4bbf 9370 dc3d
000002e0: c21b 1dbe 4bf1 56be 0854 883d cb00 4ebc
000002f0: 6bb5 e93e 17ac dc3d 9e5b 473e 04fc 6b3d
00000300: 4acb 82be 9ad5 3fbf 55d3 d1be 3065 b0be
00000310: d2ac b33c 61fd 1bbd 5c33 dbbd a35c eebe
00000320: 763e ae3e b156 313f b0e8 7b3e 30c0 413e
00000330: 5374 84be 2087 e53e 9a8c 703e 3be1 09bf
00000340: 1ad4 d63d fb8f 003e ff19 93be 11e6 36be
00000350: 209e 343e 1392 7abd 664d a6bd 3fb1 cabd
00000360: afbd 103f 491d 3abd faf6 88be 1155 57be
00000370: ac47 22be db8a 1cbc ba0b a3be 7c97 0d3f
00000380: 47bb de3e 329e 39bf 6ece 453f d389 2d3e
00000390: c1f0 f5be db08 2dbf fa0a 80bf d528 e0be
000003a0: 96d6 9bbe 73f9 d33d ab40 073e fadf bb3d
000003b0: 44b4 fa3e dc20 b23d 91f1 49be eaf4 b6bd
000003c0: a12c b7be 2e98 653f 6ebf 183f 1856 a1be
000003d0: e2e8 0ebf 070a fabd b7e1 c4b7 dd32 4f3d
000003e0: 7ceb c3bd f74a a8bc fbb9 cabc 05a7 dbbb
000003f0: c93d 003f e471 c6bb d598 c5bc 2b8a 473e
0.5375335 0.23101701 0.452927 -0.12796621 0.09463827 0.14264493 -0.08432261 -1.6962193
0.19557872 -0.20055868 0.80681294 0.08483225 0.32355437 0.24696952 -0.28765598 -0.21202959
-0.03423734 -0.02721977 0.06771746 0.2094893 0.04254693 -0.4541844 0.026621765 -0.006876004
-0.51046556 0.38224098 0.1530979 -0.31163007 0.13339019 0.04936206 0.19598602 -0.1586525
0.16239275 -0.21966793 -0.13552557 -0.13666841 -0.9727018 0.15542553 -1.1936103 0.082463965
-0.51963234 0.14625888 -1.0638341 0.20316231 -0.15283412 -0.61512804 0.20404479 0.07657213
0.33610082 -0.708898 0.44045213 0.44076517 0.31899562 0.21050645 0.031874683 -0.12692812
-0.14888881 -0.11423764 0.119261056 -0.010319042 -0.28691167 -0.11033009 0.5212279 0.6841495
-0.6708142 -0.13651955 -0.28620777 -0.48465848 0.39695695 0.14221455 0.015247775 -0.04389894
-0.95596904 -0.83500224 -1.0715202 0.32762003 0.3262358 -0.19631556 0.41982174 0.16805
0.027549526 0.21200147 -0.09341227 -0.056285642 -0.6695667 -0.10729042 0.96105546 0.016327107
-0.5039323 -0.10200688 0.35294884 0.19008648 0.38807118 -0.34511778 -0.18950085 -0.14787997
0.6039148 -0.2107712 0.32713607 -0.06561179 0.17897248 0.14959443 -0.3994911 -0.2464502
-0.018682638 0.18589643 0.022613328 0.066466846 -0.712327 0.2893499 -1.086415 -0.7251261
0.1780077 0.25860855 -0.81766534 -0.39558697 0.101497374 0.5491486 -0.115784265 -0.029033577
0.3503369 -0.6429803 0.08581808 0.4970069 0.20285095 0.21505758 0.12998454 -0.4061118
0.21216033 0.43301532 0.20088659 0.14301118 0.27706924 0.55063516 0.1981046 -0.37335926
0.16178441 0.14058231 0.4528125 -0.3341874 0.47929797 -0.4350903 0.09756236 0.11449952
-0.2806297 1.519758 0.27047747 0.21108411 0.4476771 -0.17014004 0.45791864 0.43959185
0.4723065 -0.42504022 -0.3480339 -0.091840625 -0.27907783 0.7398731 -0.11889142 0.2111053
-0.21292675 0.020179804 0.5564484 0.076005496 0.104096904 0.32332337 -0.24934685 -0.16267416
0.49275172 0.2123905 0.4944085 -0.19947702 -0.39476585 -0.088550694 -0.002312863 -0.07334727
0.7283892 0.069231994 0.31545293 0.08556849 -1.1218904 0.32320482 -0.79572284 0.10763659
-0.1534262 -0.20990483 0.06656653 -0.012573431 0.45646223 0.10775011 0.19468543 0.057613388
-0.25545722 -0.74935305 -0.40981546 -0.344522 0.021932993 -0.038083438 -0.107031554 -0.4655505
0.3403203 0.69272906 0.24600482 0.1892097 -0.25869998 0.44829655 0.23491135 -0.538593
0.10489674 0.12554924 -0.2873077 -0.17861201 0.17638445 -0.061174463 -0.08120231 -0.09897088
0.56539434 -0.045438085 -0.26750928 -0.21028544 -0.15847653 -0.00955459 -0.31844884 0.5530927
0.43502256 -0.7250701 0.7726811 0.16947107 -0.48035243 -0.6759164 -1.000335 -0.43781152
-0.30437154 0.10350313 0.13208263 0.091735795 0.48965657 0.08697674 -0.19721057 -0.089334324
-0.35776237 0.8968533 0.596671 -0.31510997 -0.558241 -0.12208944 -2.3470127e-05 0.050585616
-0.095663995 -0.020543559 -0.024746886 -0.00670326 0.50094277 -0.0060560573 -0.024120728 0.194863

bias f4 [256]
00000000: 5321 803d af37 59be dce0 b53d f4ad 68bd
00000010: 0d1c 60be 269a ee3e 2006 30bf 1eab e6bd
00000020: d091 8b3d 0b1d c53e a7d0 edbe 7c83 93be
00000030: e3df 05bf 0702 e0be 678d cdbe 6507 f2bd
00000040: 3d03 c93d e008 e4bd 87c2 f63d 8c00 20be
00000050: eae7 f33d b410 233e 988c 183e 9889 6fbe
00000060: c157 12be 4ad5 c03e fe91 83be 87ed 103e
00000070: fa31 d03e 4deb 46bf 25bc d2bd 01b5 18bf
00000080: b752 f13e f5d1 8f3e 0553 ad3e 25ab 183f
00000090: c002 993e 81de 55be 1bc5 09bf 4ce2 17bf
000000a0: 25b6 b2be 9e05 d8bd 86ae 3a3c 556e 70be
000000b0: 3ce4 c8be 44f6 90bc b249 9dbe 80e6 bebe
000000c0: b0a1 85be 9554 a83e d500 3cbe 8e00 eabd
000000d0: a5db ad3e 09ec c8be 66dc 94be 54d9 e7bc
000000e0: 1625 58be 9c31 f13e 6206 e23e 4bc4 c9bd
000000f0: fb30 ddbe 65ab e43e 0b26 01bf c3b9 26bf
00000100: 8e44 393e 8078 8f3d 8d21 e23e 424b fdbe
00000110: c49a 463e ebb7 fdbe b98f 1bbf 474e 43bf
00000120: 70e7 013f 5bef d4be a7ae 36bd 4ffb ae3e
00000130: 5211 09bf 0024 bebc 82bd c2be dcf3 0cbf
00000140: f02c 883d f030 bfbe 0116 7fbe 007d 1fbe
00000150: 7cfe ab3d 0997 41be 968e 21bf 01ea bcbe
00000160: 4428 3e3f 573f e43e d244 6ebf 97c8 bfbe
00000170: 656a 163b f93c 13bf 206f a1be 9a4e 77be
00000180: 5bdb 37bf f168 153f 64f8 08be e460 37be
00000190: 9668 b63e 9099 6f3c 9c78 c1bd cb71 bb3e
000001a0: 6c2e 0d3f 3b63 e63e f2c7 8e3d 8e71 1f3f
000001b0: af76 af3e 0a25 ea3c 2f33 d03e eea0 2ebf
000001c0: 4d1e f2bd 4c3b 0c3f c318 f0be 7eec 8abe
000001d0: 2ad8 0a3f 495a 7cbe 0d50 62bf 1bad 103f
000001e0: 1bd1 df3c d296 eb3e 9ba2 bf3e 7214 16be
000001f0: fdd4 a1bc 8f2c c6be d427 b7be 3f24 f83d
00000200: 8318 68be 7b7a d13e 825a 32bf 0c82 d03e
00000210: f2c7 843e 2196 88bd 55c2 263f d112 9e3c
00000220: 5751 d03d ebac 0bbf 4627 69be a4aa 223f
00000230: 1e36 19bf 566d b73e af06 49bf 2540 3e3f
00000240: 3794 1cbf 59b8 7ebd 72d2 f3be daf7 0c3f
00000250: c009 053f 5cf4 24be 70a2 5e3e e266 ca3e
00000260: 6b40 593d 04c4 78be b9f0 5abd 5d5a c13e
00000270: 94e7 81be 1277 80bd 7470 ddbe 23e4 ca3e
00000280: 6d14 f23d 1466 88be b1c5 ce3e 50a8 88be
00000290: ce76 ac3e e2e8 db3e ed10 33bf cbf2 c1bd
000002a0: 7441 debe eea9 b53e b985 2b3e 735c 153f
000002b0: 2a97 d13d 1199 6bbe aa76 22bd 95b7 e03d
000002c0: 2000 af3e ac19 0abe 8f54 d8bd 8ec9 a3be
000002d0: c7d5 e3be 39f4 83bd 2c16 a13e faab 89be
000002e0: 7e5d de3e 35c7 10bf 5e82 1fbe a364 2d3d
000002f0: 4a50 07bf 39a9 20be c581 fc3e 0bed dbbe
00000300: 7340 843e f6a2 693d 43b4 50bf cf72 aebe
00000310: f8eb a73e bfe5 2cbe 31d2 003b 7e73 c63e
00000320: 7545 07be 6902 85be fe74 9abd e172 973e
00000330: 8c7c 9f3d 1926 7a3e 0331 bfbe d4ff a8be
00000340: f2f4 403e 171a 2fbf 8b1d a63e c0ae a8be
00000350: c120 be3e 526e b73e a9a0 b3be 1fec e13e
00000360: 3d8c 6cbe f719 a7be b6d6 e2bd 1484 163f
00000370: eb9b b13e 172f 3fbe 773a 5abe 9345 38be
00000380: d137 ed3e 77ba 1bbf 6e35 9a3e 7ec6 113e
00000390: 4f88 2bbe 394d 32bd 55bc f1bd 5eaa db3e
000003a0: 0d50 b53c 43d0 1b3f 4613 d33c 3bda c6be
000003b0: 0478 eabd f5b0 ea3e 5539 88be 77a5 753e
000003c0: 8197 fc3e 6aea 94be 13d3 95be 07ee bb3d
000003d0: 3e32 58be 5031 b3be bc46 223d 0ccc 3b3f
000003e0: 8955 4dbe dd67 263f 975f 63be 9fc4 ca3e
000003f0: bec8 bd3d 0cf6 72bf 7d56 adbd 6b73 393e
0.06256356 -0.21212648 0.08880779 -0.05680652 -0.218857 0.4660198 -0.68759346 -0.11263107
0.06814921 0.3849872 -0.46448252 -0.28811252 -0.5229475 -0.43751547 -0.40146944 -0.11817817
0.09815071 -0.11134505 0.12048822 -0.15625209 0.119094685 0.1592434 0.14897382 -0.23392332
-0.14291288 0.37662727 -0.2569732 0.1415311 0.4066313 -0.7770279 -0.10289792 -0.5965119
0.4713342 0.28089872 0.338524 0.59636146 0.2988491 -0.2088566 -0.53816384 -0.59329677
-0.3490459 -0.105479464 0.011394149 -0.23479588 -0.3923663 -0.017695554 -0.30720288 -0.37285233
-0.2609992 0.3287703 -0.18359692 -0.11425887 0.33956638 -0.3924258 -0.290744 -0.028301872
-0.21107897 0.4710816 0.44145495 -0.09851893 -0.43201432 0.44662014 -0.50448674 -0.651272
0.18092558 0.070054054 0.44166222 -0.4947148 0.19394976 -0.4955438 -0.6076618 -0.76291317
0.5074377 -0.41588864 -0.044600155 0.34176108 -0.53542054 -0.023210526 -0.38035208 -0.550596
0.06649196 -0.37342024 -0.24910738 -0.15575027 0.083981484 -0.18905272 -0.63108194 -0.3689728
0.7428019 0.44579574 -0.9307376 -0.37457725 0.00229516 -0.5751491 -0.31530094 -0.24151078
-0.71819085 0.5836325 -0.13376004 -0.17908055 0.35626668 0.0146240145 -0.094468325 0.36610255
0.5514896 0.44997582 0.0697173 0.62282646 0.34270236 0.028582115 0.4066405 -0.6821431
-0.11822186 0.5477798 -0.46893892 -0.27133554 0.5423609 -0.24643816 -0.884034 0.5651414
0.027321389 0.46013504 0.37428746 -0.14656237 -0.019754881 -0.3870587 -0.35772574 0.121162884
-0.226656 0.40913758 -0.69669354 0.40724218 0.25933796 -0.0666926 0.6514028 0.019296082
0.10171764 -0.54560727 -0.22768888 0.63541627 -0.598482 0.35825604 -0.78525823 0.74316627
-0.6116366 -0.062187526 -0.47621495 0.5506569 0.51968 -0.1610884 0.21741652 0.39531618
0.05303995 -0.24293524 -0.053452227 0.37764254 -0.25371993 -0.06272711 -0.43249857 0.3962718
0.11820302 -0.2664038 0.40385202 -0.26690912 0.3368439 0.42951113 -0.699477 -0.09470137
-0.43409312 0.3548121 0.1675023 0.5834419 0.102339104 -0.23007609 -0.039663948 0.109725155
0.34179783 -0.13486356 -0.10563003 -0.31989712 -0.44499037 -0.06443066 0.31462228 -0.2688902
0.43430704 -0.56553966 -0.15577075 0.042332303 -0.52856886 -0.15689553 0.49317756 -0.42954287
0.2583042 0.057040177 -0.8152506 -0.34071967 0.32797217 -0.16884516 0.0019656534 0.3875999
-0.1321009 -0.259784 -0.07541846 0.29579833 0.07787427 0.24428596 -0.3734208 -0.3300768
0.18843439 -0.68399185 0.32444414 -0.32945824 0.37134364 0.35826355 -0.3508351 0.4412546
-0.23100372 -0.32636997 -0.11076109 0.58795285 0.34689268 -0.18670307 -0.21311365 -0.1799529
0.46331647 -0.608314 0.3011889 0.14235875 -0.16751216 -0.043530677 -0.118034996 0.42903417
0.022132898 0.6086466 0.025766026 -0.38838372 -0.114486724 0.45838133 -0.2660624 0.23988901
0.49334338 -0.29085094 -0.292626 0.091762595 -0.21112916 -0.3499856 0.03961824 0.73358226
-0.2005216 0.6500223 -0.22204433 0.39603135 0.09266804 -0.9490669 -0.08463762 0.18110435

weight f4 [64, 256]
00000000: 95ac e3bc 5085 fd3c bc84 843a 5e61 09bd
00000010: ff44 ad3b a6a3 d5bc 9db9 60bd 58e7 62bc
00000020: 5bd1 7fbd f73a 30bd 3a16 1b3d 04c7 793c
00000030: d11f f23b a89a d03c 8edd 3cbd ea2f de3c
00000040: af67 253d fd16 013d e4a2 fc3c a9b1 72bc
00000050: a812 a2bb 804c acbb 931e 393d 83ba 173d
00000060: 60d0 9abd d162 183c 7b46 1bbd 50d0 2c3d
00000070: 492f debc 7829 71bd 215c c23c 507b 43bc
00000080: 8b98 1abd 2546 5b3c e73e 66bd c9b1 25bb
00000090: 249e 54bd edbc 09bd 0300 303d 840b c73c
000000a0: 6003 513c c987 143c 24ba f23b 9bde 05bd
000000b0: c176 90bd 2bad efbc 69b0 1fbd ef53 bb3a
000000c0: 5d24 653c 7532 213d 5931 553d 726b 85bd
000000d0: 413c a13b b013 08bc 2fef e7b9 ca95 66bd
000000e0: 8281 7cbd 34fd a63b ae7d 4cbc dd77 823c
000000f0: 9000 4f3c 4209 69bd 0eba 5dbd 645b 193c
00000100: 78a4 bbbd a628 c23c 50ec f9bb 043c 48bd
00000110: 0a2d 953c 8600 26bd 2ca2 10bd eea2 6bbd
00000120: 8337 b8bd 8962 153d 667d 83bc 830e 9cbc
00000130: c632 443d c50c a1bc eea2 66bd 80f6 40ba
00000140: 73cf 053c 48e1 12bd 59ea 62bd 1327 733c
00000150: 409a 93bb 8ee5 12bd ab3a 1f3c 6069 37bd
00000160: 3632 ae3c 28ff 54bd f3c8 78bd 6c62 2fbd
00000170: f354 50bd ac91 23bc 75a8 f6bc 1d72 8cbd
00000180: 3e6a 88bd e406 923a a808 36bd 8f68 7cbd
00000190: 11d0 3fbd 44d8 f4bc 24cc 69bb 2856 66bd
000001a0: 9a90 79bd b5e3 8338 a0fb c53b 6133 28bc
000001b0: 1710 353d 04a4 483d 77d0 f1bc dc1b 69bd
000001c0: 9e51 a6bd 41e9 54bd 8054 47bd 46a3 193d
000001d0: c040 3abc be9a 11bd c50b 243c 5be7 63bc
000001e0: 1e81 82bd 1de6 6bbd f2a4 bfbd b030 5e3c
000001f0: 775f 8bbd 4e35 823c 761a a83c 9601 edbc
00000200: 71ca 5d3d 8700 3dbd ea0d 6a3c b3b8 8dbb
00000210: 4388 423a 66ae 18bd 4f34 19bd 44df 12bd
00000220: 4e69 313d e84a 63bd 4272 12bd ecd4 4fbd
00000230: e5a7 37bd e17f 77bd c049 8dbc 071c a8bd
00000240: 13c9 6abd 8b7a 973b 3f74 99bd 1749 c4bd
00000250: 2744 81bd 29a3 263d ced7 81bd 6108 71bd
00000260: 3a47 393d 3b97 30bd 3072 9bbd ffe1 0bbd
00000270: f7e3 3fbd f983 37bd 3ca8 dfbc 7b99 c83c
00000280: 36a0 3fbc 9cce 7fbd ab59 d8bc a269 afbd
00000290: 1c92 86bd 2931 09bd f450 80bd cc84 00bd
000002a0: 1419 20bd 49b9 543c a20f 073c 1bbc 8f3c
000002b0: 51c3 8e3a 89f4 3cbd aaca 033c d975 4abd
000002c0: 3ff3 82bd 6427 4a3b 38c3 8cbc 30a3 2ebd
000002d0: 45c7 083d 6200 abbb 7407 093d 406c a63c
000002e0: 93cf 33bc 183e 5a3d 3ca7 9fbd afe4 c9bc
000002f0: 27a6 afbc abb9 eb3a 7522 563d 48b0 56bd
00000300: 2662 043c 0082 5abd 0078 8039 ff29 97bd
00000310: 7f4d bcbc 5b88 0fbd 61b0 a2bc 4f07 bf3c
00000320: 58d6 d2bc 84eb 78bd 0c5f 953c b6c7 b93c
00000330: 2151 9a3c 8d9d e3bb 5093 48bb 829b 5bbd
00000340: 2c26 ebbc 0844 d33c 2047 bbbb 0b46 20bd
00000350: a579 5fbc 7670 8ebd effc 99bc c89c 85bd
00000360: 08ca 2dbd 4ddd b0bd c07f 57bd 22c9 bb3b
00000370: 40d5 a7bd 4255 3abd bf4e 81bc 1cf5 57bd
00000380: 34a6 86bb 1bc3 a13c 76ef 633d 7a63 f93c
00000390: f950 ee3c 892b fabb 996f 85bd ac80 97bd
000003a0: 53a6 12bc e5e5 c63c a11f a2bd b7ee 383d
000003b0: 8981 12bd 9733 a8bc 8c6a dfbc 1e53 bc3c
000003c0: d315 fa3b dec1 843c 26e5 5e3d ec69 bf3c
000003d0: 8421 fe3b 54c1 c3bc ace6 c5bc d33a d8bc
000003e0: 3534 f63b 7b7d 57bc b21e e5bc b8c7 acbd
000003f0: 6681 6abd bc09 45bd 7d9c 0abd e63b 07bd
-0.027792254 0.030947357 0.0010110359 -0.033540122 0.005287766 -0.02607901 -0.054864515 -0.013849102
-0.062455516 -0.043024983 0.037862994 0.015245203 0.0073890467 0.02546437 -0.04610973 0.027122457
0.040382084 0.031516064 0.030839391 -0.014812865 -0.0049460717 -0.005258143 0.045195173 0.037043106
-0.075592756 0.009300903 -0.037909012 0.04219085 -0.027122157 -0.05887744 0.023725571 -0.011931255
-0.037743133 0.013383423 -0.056212332 -0.002528297 -0.051908627 -0.03362744 0.04296876 0.024297483
0.012757152 0.009065577 0.0074074436 -0.032682996 -0.070539005 -0.029257378 -0.038986597 0.0014291982
0.01398572 0.03935476 0.052049015 -0.06514634 0.004920513 -0.008305475 -0.0004423796 -0.056295194
-0.061646946 0.005096102 -0.012481136 0.015926296 0.012634411 -0.056893595 -0.054132514 0.009360168
-0.09162229 0.023701023 -0.0076270476 -0.04888536 0.018209953 -0.040527843 -0.03531091 -0.05752843
-0.08994963 0.036470924 -0.016051006 -0.019049888 0.047899984 -0.01965941 -0.056307726 -0.000736095
0.0081671355 -0.035859376 -0.055399273 0.014840859 -0.004504472 -0.03586345 0.009718577 -0.044778228
0.021264177 -0.05200115 -0.060738515 -0.04281847 -0.050862264 -0.009983461 -0.030109623 -0.06857703
-0.06660889 0.001114097 -0.04444185 -0.061623152 -0.046829287 -0.02988828 -0.0035674656 -0.05623451
-0.06092892 6.2889805e-05 0.006041959 -0.010266156 0.044204798 0.048984542 -0.02951835 -0.056911334
-0.08121036 -0.05198026 -0.04866457 0.037509225 -0.011367977 -0.035547964 0.010012572 -0.01391014
-0.063722834 -0.0575925 -0.09357633 0.013561413 -0.06805318 0.015894558 0.02052043 -0.02893142
0.05414814 -0.04614308 0.014285544 -0.0043249964 0.0007420817 -0.037275694 -0.0374034 -0.035857454
0.043313317 -0.055491358 -0.035753496 -0.050740167 -0.04483785 -0.06042469 -0.01724708 -0.08208471
-0.057320666 0.0046227626 -0.07492875 -0.09584253 -0.06311827 0.040682945 -0.063399896 -0.05884588
0.045233943 -0.043112975 -0.07590139 -0.034151074 -0.046848264 -0.044803593 -0.0273019 0.024487248
-0.011695912 -0.062452897 -0.026409945 -0.0856507 -0.06570837 -0.03349415 -0.062654406 -0.031376645
-0.039086416 0.012983629 0.008243473 0.01754575 0.0010891949 -0.046131644 0.008043924 -0.049428795
-0.06394052 0.0030846233 -0.017182931 -0.042636096 0.033393163 -0.0052185515 0.033454373 0.02031529
-0.0109747825 0.053281873 -0.07795569 -0.024645178 -0.021441532 0.001798441 0.052278955 -0.05241421
0.008080041 -0.053346634 0.0002450347 -0.07381057 -0.022986172 -0.035042148 -0.019859495 0.023318915
-0.025736973 -0.06077148 0.018233798 0.022678237 0.018837513 -0.0069462718 -0.0030605383 -0.0536151
-0.028704725 0.025789276 -0.005715266 -0.0391293 -0.013639842 -0.06955044 -0.018797366 -0.06524044
-0.042429 -0.0863596 -0.052612066 0.005730764 -0.08194971 -0.045491464 -0.01578462 -0.05272399
-0.0041091684 0.019746354 0.05564829 0.030442942 0.029091345 -0.0076345843 -0.06515426 -0.07397589
-0.008950788 0.024279544 -0.07916189 0.04514953 -0.035768066 -0.020532412 -0.027272485 0.022988852
0.007631996 0.016205724 0.05441775 0.023365937 0.00775546 -0.023895897 -0.024157844 -0.026395237
0.007513548 -0.0131524755 -0.027968738 -0.08436531 -0.05725231 -0.048104987 -0.033840645 -0.033016108

bias f4 [64]
00000000: 8184 bbbd 5a34 243e 5260 803e 1a85 d83c
00000010: 4874 46bd 1b1b 5d3e d81b 7b3e 9a2f 333e
00000020: a9e6 2a3e bcc9 7abc 06e1 063d 764c d73d
00000030: 3ea7 2c3e 492f 9cbd 43dc 43bd 07ad cf3c
00000040: 7a51 373e 6353 0e3e 614b 4e3e fdcd 793e
00000050: 2af3 823e e520 1c3d 3538 5e3e 5c4b 363d
00000060: f5b0 8b3e ded6 633e f7e1 7f3e d49d 45bd
00000070: 2f75 67bd 9c8a 183d 4f72 733e 67c7 883e
00000080: 8861 413c d29c babc e190 523e fd48 9b3e
00000090: 1b43 573e 0827 2f3e f6ca b33d 6509 0cbd
000000a0: 2bbf 743c bc03 1d3d 1337 0f3e 75e6 093e
000000b0: 2796 823e f9be 6f3e 155e 533c 810d a739
000000c0: de85 d83c aa5b 7b3e 52f8 3f3e 6c9c 713e
000000d0: 5dd7 673e e432 35bc 402d 6b3e 6dc9 623e
000000e0: 1ae0 933d 0b23 01bc c869 95bd 0df3 913e
000000f0: c1a1 863c 0020 8ebd ccde 77bd 2273 d73d
-0.091561325 0.16035596 0.25073487 0.026430655 -0.04845074 0.21592371 0.2452234 0.17498627
0.16689552 -0.015306886 0.032929443 0.10512631 0.16860673 -0.076262064 -0.04781748 0.02535106
0.17902175 0.13898997 0.20145942 0.24394985 0.25576144 0.03811731 0.21701129 0.044505462
0.27283445 0.22249934 0.24988542 -0.04824622 -0.05650824 0.037241563 0.23774074 0.26714632
0.011803038 -0.022779856 0.2056308 0.30329123 0.21021692 0.17104733 0.08778946 -0.034188647
0.014938156 0.03833364 0.13985853 0.13466819 0.25505182 0.23412694 0.012900849 0.00031862783
0.02643102 0.24546686 0.1874707 0.23594826 0.22640748 -0.011059497 0.2296648 0.2214715
0.07220478 -0.00788189 -0.07295567 0.28505746 0.016434552 -0.06939697 -0.06051521 0.10520007

weight f4 [3, 64]
00000000: c8c5 a6bd 4e35 e53e 0703 963e 42fa 74bc
00000010: c6f2 553d 49fc d0bd e1d3 c5bd 82c1 f8bc
00000020: 55c0 b13e 9b82 a63c acc6 0cbd de03 8c3c
00000030: 3bc1 653c b550 433d 3936 6bbd b63c 273d
00000040: 04fb 383e 4235 1c3e 496d ccbd d854 45bd
00000050: ec92 b2bd a683 5c3d b1e0 27bd 81c9 d6bd
00000060: d6d1 0c3d 669c 8c3d 6417 98bd a104 f23d
00000070: dd4b bb3d 719a b5bd c654 c33d 7c80 56bd
00000080: 60fe 93bd 47ba b33d ec18 363e 026c 80bd
00000090: 6e86 2cbe 9aa8 c0bd 9b24 cebd dc62 fdbd
000000a0: d111 63bd 8728 a03d 585f 9e3d bfdf 28be
000000b0: bde9 c5bd 87bd 13bc 6ab9 bb3c bb9d 5ebd
000000c0: bec4 e8bc 167e dd3c d78e 2d3e f3b1 383e
000000d0: 7aa3 11be fc34 02bd df75 09be 2730 d93e
000000e0: ed1e 483d cf01 da3c 8c52 a0bd 0415 03bc
000000f0: 4f60 f23c 92f5 e23b cc1c c93d 2485 1abc
00000100: 8899 06bd 9ed5 85bd 8e9d 513c 66bb 95bd
00000110: 21b5 033d cef9 063d d69f 96bc 6a02 47ba
00000120: e689 38be 00cc c3bb 3c9b c23d fbe8 92bd
00000130: 152c 353e e6b0 bbbd ac56 a4bc 2c13 b3bd
00000140: bdac 703c c296 d1bc 2b7b 02be a18b d53c
00000150: d449 b43d a1b0 003e 590c 313e d627 eabd
00000160: 3957 9fbd f041 23be a8dd 503e e968 c9bd
00000170: 5014 3e3d 9cba 2e3c 0fe2 073d 4b6b 35be
00000180: 62a3 adbd 1419 91bb d692 163e a790 b3bd
00000190: 6466 18be a38e a8bd f3b7 a6bc de3f dbbd
000001a0: 643c 923d 49dc 3cbd 5fed b13d e1c3 f3bd
000001b0: 0ff1 abbd 5e29 42bd ee69 4dbd d983 9e3d
000001c0: 96a5 453b 1d69 4138 818a 0b3e dd32 1b3d
000001d0: cb93 063e 937a 233d bc8a 89bc f5fe f0bc
000001e0: fb27 a4bd d37c ddbd 2694 dfbd 2e9d c7bc
000001f0: bb3c 9fbd 0249 453c 5fb0 e33b 63f2 e23d
00000200: fc12 7fbd 3810 ccbe 6706 6dbe 2758 643d
00000210: f1b1 a13d de0a 1b3e 2dd4 803d 5f01 f03d
00000220: fbbe 96be 0992 5c3d 2c73 72bd 10e4 913d
00000230: 1d59 733d 4025 a73d c79b bf3d 66e0 083e
00000240: ab88 04be 073b 5cbc 6b44 913e a2ff 883e
00000250: a169 98bd 9558 e93d bd38 9d3d 5b01 7fbd
00000260: 2930 ea3d 4759 613e 373e 0e3e e433 2f3c
00000270: bdff e93d e286 e8bd 57a2 a0bd 8013 a23c
00000280: e895 a13b e592 8e3c 933a c0bd e554 c73d
00000290: 49e1 873d 7431 153d e4e9 d43d eb4e 913d
000002a0: 92bd 0cbd 94f3 02bd e73b fdbd 90c9 a23e
000002b0: 4588 ff3d 5e8f 9f3c 4e75 163d e4ad d2bd
000002c0: 5aaa 913c b8c4 37bd 1c22 cebd 62a9 a4bd
000002d0: bf2a 9e3e 107c d1bb 833c 033c 7e15 b0be
000002e0: 895b 53bd 699f 863d e3d5 373d 59d5 7c3d
000002f0: 7200 03bc 6a82 87bd 1c63 033e c8dc 2abe
-0.081431925 0.4476723 0.29299185 -0.014952244 0.05223348 -0.102043696 -0.09659553 -0.03036571
0.3471705 0.02032595 -0.034369156 0.017091688 0.0140231205 0.04768439 -0.057424758 0.040829383
0.18064505 0.15254691 -0.09981782 -0.048176616 -0.087194294 0.053836487 -0.040985767 -0.104876526
0.034379803 0.06865768 -0.074263364 0.11817289 0.09145329 -0.08867348 0.095376536 -0.052368626
-0.072262526 0.08775764 0.17782944 -0.06270601 -0.16848156 -0.09407158 -0.10065576 -0.123723716
-0.055436913 0.0782023 0.07733029 -0.16491602 -0.09663723 -0.009017355 0.02291556 -0.054349642
-0.028414126 0.027037662 0.1694902 0.18036632 -0.14222518 -0.03178881 -0.1342387 0.4241955
0.048857618 0.02661219 -0.078282446 -0.008000616 0.02958694 0.006926247 0.09819946 -0.009431157
-0.032861263 -0.06534885 0.012793912 -0.07311134 0.03215516 0.032953076 -0.018386763 -0.0007591607
-0.18021354 -0.0059752464 0.09502265 -0.07173344 0.17692597 -0.091646 -0.02006086 -0.08743891
0.0146896215 -0.025584582 -0.12742297 0.026067557 0.08803144 0.12567379 0.17289867 -0.11433379
-0.07780308 -0.15943122 0.20397055 -0.09834463 0.04640609 0.010664608 0.03317457 -0.1771671
-0.084784284 -0.0044280384 0.14704451 -0.087678246 -0.14882809 -0.08230331 -0.020351386 -0.10705541
0.07140425 -0.046108518 0.08687853 -0.11902595 -0.08395588 -0.047402732 -0.05014985 0.07739992
0.0030158511 4.611268e-05 0.13627054 0.037890304 0.13142316 0.039911818 -0.016789787 -0.029418448
-0.08015438 -0.10814824 -0.10916929 -0.024366941 -0.07775255 0.012041332 0.0069485153 0.11081388
-0.062273964 -0.39856124 -0.23146974 0.05574813 0.07895268 0.15140864 0.06290469 0.117190115
-0.29442582 0.053850207 -0.059191868 0.071235776 0.059411157 0.08161402 0.09355884 0.13366851
-0.1294276 -0.013441808 0.2837251 0.26757532 -0.07442022 0.11393849 0.076768376 -0.062257152
0.11434967 0.22006713 0.1389092 0.010693524 0.11425731 -0.11353852 -0.07843464 0.019784689
0.0049312003 0.01740403 -0.09386172 0.09732989 0.066347666 0.036424115 0.103961736 0.070951305
-0.034360476 -0.031970575 -0.12364941 0.31794405 0.12477163 0.019477542 0.036732964 -0.10287073
0.017781425 -0.04486534 -0.100650996 -0.0804012 0.30891988 -0.006392963 0.008010033 -0.34391397
-0.051600967 0.06573374 0.044881713 0.0617269 -0.007995712 -0.066166714 0.12830776 -0.16685784

bias f4 [3]
00000000: 688b 9b3e fbc9 adbc f559 babe
0.30379796 -0.021214476 -0.36396757

weight f4 [1, 64]
00000000: d3d3 b53d 39d6 6cbd 5acb 24be c894 e43d
00000010: 60a3 593d e2b3 2ebe 9207 30be 036c e9bd
00000020: 77d3 63bc 1ba0 d53c 462e ab3d 5864 54bd
00000030: a792 40be 5e33 853d 5e72 e23d 96df e53d
00000040: c73a 01be 7b58 95bd 662c a3bd 9c94 07be
00000050: a8fd 31be a269 d63d c959 35be 81b6 d33d
00000060: f21b 1ebe 07fa d6bd f9eb 31be 485d 5a3d
00000070: 88b4 ab3c 31fe aabb 1c8f 03be 2651 14be
00000080: 2fc3 873d b3ab db3d ae48 e1bd c0ca 30be
00000090: b2fc 8ebd dfbe 18be 985c 153f 009c 4e3b
000000a0: 876d a23d 8364 f93c 621d a3bd 49b6 8fbd
000000b0: e99e 2cbe 7609 3fbe 9e5a 4b3d 4211 713d
000000c0: e05c 303d e269 2cbe 571b 45be eb55 d5bd
000000d0: 5986 27be b428 e3bd 2720 1ebe 1b37 22be
000000e0: 6d1c 9e3f 70f2 d63d bbfd 953d a833 3cbe
000000f0: 990d 643c a4b7 8b3d 9ffd aebb eb88 c2bd
0.08878293 -0.057821486 -0.16093197 0.1116119 0.053134322 -0.17060807 -0.17190388 -0.11397555
-0.013905398 0.02607732 0.08358435 -0.051853508 -0.18805943 0.06503938 0.1105697 0.11224286
-0.12620078 -0.07292267 -0.07967453 -0.13240284 -0.17381918 0.104693666 -0.17710032 0.10337544
-0.15440348 -0.10496908 -0.17375173 0.053311616 0.020960107 -0.0052182903 -0.1284756 -0.1448408
0.06629025 0.107261084 -0.11000191 -0.17264843 -0.069817916 -0.14916562 0.5834441 0.0031526089
0.07931047 0.030443436 -0.07964589 -0.0701719 -0.16857494 -0.18655953 0.049646966 0.05885435
0.043057323 -0.16837266 -0.1924871 -0.10416778 -0.16359843 -0.11091748 -0.15441953 -0.15841334
1.2352425 0.1049546 0.07323786 -0.1837908 0.013919258 0.06822136 -0.0053402926 -0.09498771
